{"class_name": "Model", "config": {"name": "model_2", "layers": [{"name": "input_1", "class_name": "InputLayer", "config": {"batch_input_shape": [null, 512, 512, 1], "dtype": "float32", "sparse": false, "name": "input_1"}, "inbound_nodes": []}, {"name": "lambda_1", "class_name": "Lambda", "config": {"name": "lambda_1", "trainable": true, "function": ["4wMAAAAAAAAACgAAAAQAAABTAAAAc4YAAAB0AGoBfACDAX0DfANkAGQBhQIZAH0EfANkAWQAhQIZ\nAH0FfAR8AhoAfQZ8AXwCZAEYAGsCckR8BHwGfAEUABgAfQduBHwGfQd0AGoCfAd8BWcCZAJkA40C\nfQd0AGoCfAZ8BWQCFABnAmQCZAONAn0IfAh8ARQAfQl0AGoDfAB8CXwHgwNTACkETukBAAAA6QAA\nAAApAdoEYXhpcykE2gFL2gVzaGFwZdoLY29uY2F0ZW5hdGXaBXNsaWNlKQraBGRhdGHaAWnaBXBh\ncnRzcgUAAADaCmJhdGNoX3NpemXaC2lucHV0X3NoYXBl2gRzdGVw2gRzaXpl2gZzdHJpZGXaBXN0\nYXJ0qQByEQAAAPpJQzpcUHJvZ3JhbURhdGFcQW5hY29uZGEzXGxpYlxzaXRlLXBhY2thZ2VzXGtl\ncmFzXHV0aWxzXG11bHRpX2dwdV91dGlscy5wedoJZ2V0X3NsaWNltwAAAHMWAAAAAAEKAQwBDAEI\nAQwBDgIEARIBFgEIAQ==\n", null, null], "function_type": "lambda", "output_shape": [512, 512, 1], "output_shape_type": "raw", "arguments": {"i": 0, "parts": 8}}, "inbound_nodes": [[["input_1", 0, 0, {}]]]}, {"name": "lambda_2", "class_name": "Lambda", "config": {"name": "lambda_2", "trainable": true, "function": ["4wMAAAAAAAAACgAAAAQAAABTAAAAc4YAAAB0AGoBfACDAX0DfANkAGQBhQIZAH0EfANkAWQAhQIZ\nAH0FfAR8AhoAfQZ8AXwCZAEYAGsCckR8BHwGfAEUABgAfQduBHwGfQd0AGoCfAd8BWcCZAJkA40C\nfQd0AGoCfAZ8BWQCFABnAmQCZAONAn0IfAh8ARQAfQl0AGoDfAB8CXwHgwNTACkETukBAAAA6QAA\nAAApAdoEYXhpcykE2gFL2gVzaGFwZdoLY29uY2F0ZW5hdGXaBXNsaWNlKQraBGRhdGHaAWnaBXBh\ncnRzcgUAAADaCmJhdGNoX3NpemXaC2lucHV0X3NoYXBl2gRzdGVw2gRzaXpl2gZzdHJpZGXaBXN0\nYXJ0qQByEQAAAPpJQzpcUHJvZ3JhbURhdGFcQW5hY29uZGEzXGxpYlxzaXRlLXBhY2thZ2VzXGtl\ncmFzXHV0aWxzXG11bHRpX2dwdV91dGlscy5wedoJZ2V0X3NsaWNltwAAAHMWAAAAAAEKAQwBDAEI\nAQwBDgIEARIBFgEIAQ==\n", null, null], "function_type": "lambda", "output_shape": [512, 512, 1], "output_shape_type": "raw", "arguments": {"i": 1, "parts": 8}}, "inbound_nodes": [[["input_1", 0, 0, {}]]]}, {"name": "lambda_3", "class_name": "Lambda", "config": {"name": "lambda_3", "trainable": true, "function": ["4wMAAAAAAAAACgAAAAQAAABTAAAAc4YAAAB0AGoBfACDAX0DfANkAGQBhQIZAH0EfANkAWQAhQIZ\nAH0FfAR8AhoAfQZ8AXwCZAEYAGsCckR8BHwGfAEUABgAfQduBHwGfQd0AGoCfAd8BWcCZAJkA40C\nfQd0AGoCfAZ8BWQCFABnAmQCZAONAn0IfAh8ARQAfQl0AGoDfAB8CXwHgwNTACkETukBAAAA6QAA\nAAApAdoEYXhpcykE2gFL2gVzaGFwZdoLY29uY2F0ZW5hdGXaBXNsaWNlKQraBGRhdGHaAWnaBXBh\ncnRzcgUAAADaCmJhdGNoX3NpemXaC2lucHV0X3NoYXBl2gRzdGVw2gRzaXpl2gZzdHJpZGXaBXN0\nYXJ0qQByEQAAAPpJQzpcUHJvZ3JhbURhdGFcQW5hY29uZGEzXGxpYlxzaXRlLXBhY2thZ2VzXGtl\ncmFzXHV0aWxzXG11bHRpX2dwdV91dGlscy5wedoJZ2V0X3NsaWNltwAAAHMWAAAAAAEKAQwBDAEI\nAQwBDgIEARIBFgEIAQ==\n", null, null], "function_type": "lambda", "output_shape": [512, 512, 1], "output_shape_type": "raw", "arguments": {"i": 2, "parts": 8}}, "inbound_nodes": [[["input_1", 0, 0, {}]]]}, {"name": "lambda_4", "class_name": "Lambda", "config": {"name": "lambda_4", "trainable": true, "function": ["4wMAAAAAAAAACgAAAAQAAABTAAAAc4YAAAB0AGoBfACDAX0DfANkAGQBhQIZAH0EfANkAWQAhQIZ\nAH0FfAR8AhoAfQZ8AXwCZAEYAGsCckR8BHwGfAEUABgAfQduBHwGfQd0AGoCfAd8BWcCZAJkA40C\nfQd0AGoCfAZ8BWQCFABnAmQCZAONAn0IfAh8ARQAfQl0AGoDfAB8CXwHgwNTACkETukBAAAA6QAA\nAAApAdoEYXhpcykE2gFL2gVzaGFwZdoLY29uY2F0ZW5hdGXaBXNsaWNlKQraBGRhdGHaAWnaBXBh\ncnRzcgUAAADaCmJhdGNoX3NpemXaC2lucHV0X3NoYXBl2gRzdGVw2gRzaXpl2gZzdHJpZGXaBXN0\nYXJ0qQByEQAAAPpJQzpcUHJvZ3JhbURhdGFcQW5hY29uZGEzXGxpYlxzaXRlLXBhY2thZ2VzXGtl\ncmFzXHV0aWxzXG11bHRpX2dwdV91dGlscy5wedoJZ2V0X3NsaWNltwAAAHMWAAAAAAEKAQwBDAEI\nAQwBDgIEARIBFgEIAQ==\n", null, null], "function_type": "lambda", "output_shape": [512, 512, 1], "output_shape_type": "raw", "arguments": {"i": 3, "parts": 8}}, "inbound_nodes": [[["input_1", 0, 0, {}]]]}, {"name": "lambda_5", "class_name": "Lambda", "config": {"name": "lambda_5", "trainable": true, "function": ["4wMAAAAAAAAACgAAAAQAAABTAAAAc4YAAAB0AGoBfACDAX0DfANkAGQBhQIZAH0EfANkAWQAhQIZ\nAH0FfAR8AhoAfQZ8AXwCZAEYAGsCckR8BHwGfAEUABgAfQduBHwGfQd0AGoCfAd8BWcCZAJkA40C\nfQd0AGoCfAZ8BWQCFABnAmQCZAONAn0IfAh8ARQAfQl0AGoDfAB8CXwHgwNTACkETukBAAAA6QAA\nAAApAdoEYXhpcykE2gFL2gVzaGFwZdoLY29uY2F0ZW5hdGXaBXNsaWNlKQraBGRhdGHaAWnaBXBh\ncnRzcgUAAADaCmJhdGNoX3NpemXaC2lucHV0X3NoYXBl2gRzdGVw2gRzaXpl2gZzdHJpZGXaBXN0\nYXJ0qQByEQAAAPpJQzpcUHJvZ3JhbURhdGFcQW5hY29uZGEzXGxpYlxzaXRlLXBhY2thZ2VzXGtl\ncmFzXHV0aWxzXG11bHRpX2dwdV91dGlscy5wedoJZ2V0X3NsaWNltwAAAHMWAAAAAAEKAQwBDAEI\nAQwBDgIEARIBFgEIAQ==\n", null, null], "function_type": "lambda", "output_shape": [512, 512, 1], "output_shape_type": "raw", "arguments": {"i": 4, "parts": 8}}, "inbound_nodes": [[["input_1", 0, 0, {}]]]}, {"name": "lambda_6", "class_name": "Lambda", "config": {"name": "lambda_6", "trainable": true, "function": ["4wMAAAAAAAAACgAAAAQAAABTAAAAc4YAAAB0AGoBfACDAX0DfANkAGQBhQIZAH0EfANkAWQAhQIZ\nAH0FfAR8AhoAfQZ8AXwCZAEYAGsCckR8BHwGfAEUABgAfQduBHwGfQd0AGoCfAd8BWcCZAJkA40C\nfQd0AGoCfAZ8BWQCFABnAmQCZAONAn0IfAh8ARQAfQl0AGoDfAB8CXwHgwNTACkETukBAAAA6QAA\nAAApAdoEYXhpcykE2gFL2gVzaGFwZdoLY29uY2F0ZW5hdGXaBXNsaWNlKQraBGRhdGHaAWnaBXBh\ncnRzcgUAAADaCmJhdGNoX3NpemXaC2lucHV0X3NoYXBl2gRzdGVw2gRzaXpl2gZzdHJpZGXaBXN0\nYXJ0qQByEQAAAPpJQzpcUHJvZ3JhbURhdGFcQW5hY29uZGEzXGxpYlxzaXRlLXBhY2thZ2VzXGtl\ncmFzXHV0aWxzXG11bHRpX2dwdV91dGlscy5wedoJZ2V0X3NsaWNltwAAAHMWAAAAAAEKAQwBDAEI\nAQwBDgIEARIBFgEIAQ==\n", null, null], "function_type": "lambda", "output_shape": [512, 512, 1], "output_shape_type": "raw", "arguments": {"i": 5, "parts": 8}}, "inbound_nodes": [[["input_1", 0, 0, {}]]]}, {"name": "lambda_7", "class_name": "Lambda", "config": {"name": "lambda_7", "trainable": true, "function": ["4wMAAAAAAAAACgAAAAQAAABTAAAAc4YAAAB0AGoBfACDAX0DfANkAGQBhQIZAH0EfANkAWQAhQIZ\nAH0FfAR8AhoAfQZ8AXwCZAEYAGsCckR8BHwGfAEUABgAfQduBHwGfQd0AGoCfAd8BWcCZAJkA40C\nfQd0AGoCfAZ8BWQCFABnAmQCZAONAn0IfAh8ARQAfQl0AGoDfAB8CXwHgwNTACkETukBAAAA6QAA\nAAApAdoEYXhpcykE2gFL2gVzaGFwZdoLY29uY2F0ZW5hdGXaBXNsaWNlKQraBGRhdGHaAWnaBXBh\ncnRzcgUAAADaCmJhdGNoX3NpemXaC2lucHV0X3NoYXBl2gRzdGVw2gRzaXpl2gZzdHJpZGXaBXN0\nYXJ0qQByEQAAAPpJQzpcUHJvZ3JhbURhdGFcQW5hY29uZGEzXGxpYlxzaXRlLXBhY2thZ2VzXGtl\ncmFzXHV0aWxzXG11bHRpX2dwdV91dGlscy5wedoJZ2V0X3NsaWNltwAAAHMWAAAAAAEKAQwBDAEI\nAQwBDgIEARIBFgEIAQ==\n", null, null], "function_type": "lambda", "output_shape": [512, 512, 1], "output_shape_type": "raw", "arguments": {"i": 6, "parts": 8}}, "inbound_nodes": [[["input_1", 0, 0, {}]]]}, {"name": "lambda_8", "class_name": "Lambda", "config": {"name": "lambda_8", "trainable": true, "function": ["4wMAAAAAAAAACgAAAAQAAABTAAAAc4YAAAB0AGoBfACDAX0DfANkAGQBhQIZAH0EfANkAWQAhQIZ\nAH0FfAR8AhoAfQZ8AXwCZAEYAGsCckR8BHwGfAEUABgAfQduBHwGfQd0AGoCfAd8BWcCZAJkA40C\nfQd0AGoCfAZ8BWQCFABnAmQCZAONAn0IfAh8ARQAfQl0AGoDfAB8CXwHgwNTACkETukBAAAA6QAA\nAAApAdoEYXhpcykE2gFL2gVzaGFwZdoLY29uY2F0ZW5hdGXaBXNsaWNlKQraBGRhdGHaAWnaBXBh\ncnRzcgUAAADaCmJhdGNoX3NpemXaC2lucHV0X3NoYXBl2gRzdGVw2gRzaXpl2gZzdHJpZGXaBXN0\nYXJ0qQByEQAAAPpJQzpcUHJvZ3JhbURhdGFcQW5hY29uZGEzXGxpYlxzaXRlLXBhY2thZ2VzXGtl\ncmFzXHV0aWxzXG11bHRpX2dwdV91dGlscy5wedoJZ2V0X3NsaWNltwAAAHMWAAAAAAEKAQwBDAEI\nAQwBDgIEARIBFgEIAQ==\n", null, null], "function_type": "lambda", "output_shape": [512, 512, 1], "output_shape_type": "raw", "arguments": {"i": 7, "parts": 8}}, "inbound_nodes": [[["input_1", 0, 0, {}]]]}, {"name": "model_1", "class_name": "Model", "config": {"name": "model_1", "layers": [{"name": "input_1", "class_name": "InputLayer", "config": {"batch_input_shape": [null, 512, 512, 1], "dtype": "float32", "sparse": false, "name": "input_1"}, "inbound_nodes": []}, {"name": "conv2d_1", "class_name": "Conv2D", "config": {"name": "conv2d_1", "trainable": true, "filters": 64, "kernel_size": [3, 3], "strides": [1, 1], "padding": "same", "data_format": "channels_last", "dilation_rate": [1, 1], "activation": "relu", "use_bias": true, "kernel_initializer": {"class_name": "VarianceScaling", "config": {"scale": 2.0, "mode": "fan_in", "distribution": "normal", "seed": null}}, "bias_initializer": {"class_name": "Zeros", "config": {}}, "kernel_regularizer": null, "bias_regularizer": null, "activity_regularizer": null, "kernel_constraint": null, "bias_constraint": null}, "inbound_nodes": [[["input_1", 0, 0, {}]]]}, {"name": "conv2d_2", "class_name": "Conv2D", "config": {"name": "conv2d_2", "trainable": true, "filters": 64, "kernel_size": [3, 3], "strides": [1, 1], "padding": "same", "data_format": "channels_last", "dilation_rate": [1, 1], "activation": "relu", "use_bias": true, "kernel_initializer": {"class_name": "VarianceScaling", "config": {"scale": 2.0, "mode": "fan_in", "distribution": "normal", "seed": null}}, "bias_initializer": {"class_name": "Zeros", "config": {}}, "kernel_regularizer": null, "bias_regularizer": null, "activity_regularizer": null, "kernel_constraint": null, "bias_constraint": null}, "inbound_nodes": [[["conv2d_1", 0, 0, {}]]]}, {"name": "max_pooling2d_1", "class_name": "MaxPooling2D", "config": {"name": "max_pooling2d_1", "trainable": true, "pool_size": [2, 2], "padding": "valid", "strides": [2, 2], "data_format": "channels_last"}, "inbound_nodes": [[["conv2d_2", 0, 0, {}]]]}, {"name": "conv2d_3", "class_name": "Conv2D", "config": {"name": "conv2d_3", "trainable": true, "filters": 128, "kernel_size": [3, 3], "strides": [1, 1], "padding": "same", "data_format": "channels_last", "dilation_rate": [1, 1], "activation": "relu", "use_bias": true, "kernel_initializer": {"class_name": "VarianceScaling", "config": {"scale": 2.0, "mode": "fan_in", "distribution": "normal", "seed": null}}, "bias_initializer": {"class_name": "Zeros", "config": {}}, "kernel_regularizer": null, "bias_regularizer": null, "activity_regularizer": null, "kernel_constraint": null, "bias_constraint": null}, "inbound_nodes": [[["max_pooling2d_1", 0, 0, {}]]]}, {"name": "conv2d_4", "class_name": "Conv2D", "config": {"name": "conv2d_4", "trainable": true, "filters": 128, "kernel_size": [3, 3], "strides": [1, 1], "padding": "same", "data_format": "channels_last", "dilation_rate": [1, 1], "activation": "relu", "use_bias": true, "kernel_initializer": {"class_name": "VarianceScaling", "config": {"scale": 2.0, "mode": "fan_in", "distribution": "normal", "seed": null}}, "bias_initializer": {"class_name": "Zeros", "config": {}}, "kernel_regularizer": null, "bias_regularizer": null, "activity_regularizer": null, "kernel_constraint": null, "bias_constraint": null}, "inbound_nodes": [[["conv2d_3", 0, 0, {}]]]}, {"name": "max_pooling2d_2", "class_name": "MaxPooling2D", "config": {"name": "max_pooling2d_2", "trainable": true, "pool_size": [2, 2], "padding": "valid", "strides": [2, 2], "data_format": "channels_last"}, "inbound_nodes": [[["conv2d_4", 0, 0, {}]]]}, {"name": "conv2d_5", "class_name": "Conv2D", "config": {"name": "conv2d_5", "trainable": true, "filters": 256, "kernel_size": [3, 3], "strides": [1, 1], "padding": "same", "data_format": "channels_last", "dilation_rate": [1, 1], "activation": "relu", "use_bias": true, "kernel_initializer": {"class_name": "VarianceScaling", "config": {"scale": 2.0, "mode": "fan_in", "distribution": "normal", "seed": null}}, "bias_initializer": {"class_name": "Zeros", "config": {}}, "kernel_regularizer": null, "bias_regularizer": null, "activity_regularizer": null, "kernel_constraint": null, "bias_constraint": null}, "inbound_nodes": [[["max_pooling2d_2", 0, 0, {}]]]}, {"name": "conv2d_6", "class_name": "Conv2D", "config": {"name": "conv2d_6", "trainable": true, "filters": 256, "kernel_size": [3, 3], "strides": [1, 1], "padding": "same", "data_format": "channels_last", "dilation_rate": [1, 1], "activation": "relu", "use_bias": true, "kernel_initializer": {"class_name": "VarianceScaling", "config": {"scale": 2.0, "mode": "fan_in", "distribution": "normal", "seed": null}}, "bias_initializer": {"class_name": "Zeros", "config": {}}, "kernel_regularizer": null, "bias_regularizer": null, "activity_regularizer": null, "kernel_constraint": null, "bias_constraint": null}, "inbound_nodes": [[["conv2d_5", 0, 0, {}]]]}, {"name": "max_pooling2d_3", "class_name": "MaxPooling2D", "config": {"name": "max_pooling2d_3", "trainable": true, "pool_size": [2, 2], "padding": "valid", "strides": [2, 2], "data_format": "channels_last"}, "inbound_nodes": [[["conv2d_6", 0, 0, {}]]]}, {"name": "conv2d_7", "class_name": "Conv2D", "config": {"name": "conv2d_7", "trainable": true, "filters": 512, "kernel_size": [3, 3], "strides": [1, 1], "padding": "same", "data_format": "channels_last", "dilation_rate": [1, 1], "activation": "relu", "use_bias": true, "kernel_initializer": {"class_name": "VarianceScaling", "config": {"scale": 2.0, "mode": "fan_in", "distribution": "normal", "seed": null}}, "bias_initializer": {"class_name": "Zeros", "config": {}}, "kernel_regularizer": null, "bias_regularizer": null, "activity_regularizer": null, "kernel_constraint": null, "bias_constraint": null}, "inbound_nodes": [[["max_pooling2d_3", 0, 0, {}]]]}, {"name": "conv2d_8", "class_name": "Conv2D", "config": {"name": "conv2d_8", "trainable": true, "filters": 512, "kernel_size": [3, 3], "strides": [1, 1], "padding": "same", "data_format": "channels_last", "dilation_rate": [1, 1], "activation": "relu", "use_bias": true, "kernel_initializer": {"class_name": "VarianceScaling", "config": {"scale": 2.0, "mode": "fan_in", "distribution": "normal", "seed": null}}, "bias_initializer": {"class_name": "Zeros", "config": {}}, "kernel_regularizer": null, "bias_regularizer": null, "activity_regularizer": null, "kernel_constraint": null, "bias_constraint": null}, "inbound_nodes": [[["conv2d_7", 0, 0, {}]]]}, {"name": "dropout_1", "class_name": "Dropout", "config": {"name": "dropout_1", "trainable": true, "rate": 0.5, "noise_shape": null, "seed": null}, "inbound_nodes": [[["conv2d_8", 0, 0, {}]]]}, {"name": "max_pooling2d_4", "class_name": "MaxPooling2D", "config": {"name": "max_pooling2d_4", "trainable": true, "pool_size": [2, 2], "padding": "valid", "strides": [2, 2], "data_format": "channels_last"}, "inbound_nodes": [[["dropout_1", 0, 0, {}]]]}, {"name": "conv2d_9", "class_name": "Conv2D", "config": {"name": "conv2d_9", "trainable": true, "filters": 1024, "kernel_size": [3, 3], "strides": [1, 1], "padding": "same", "data_format": "channels_last", "dilation_rate": [1, 1], "activation": "relu", "use_bias": true, "kernel_initializer": {"class_name": "VarianceScaling", "config": {"scale": 2.0, "mode": "fan_in", "distribution": "normal", "seed": null}}, "bias_initializer": {"class_name": "Zeros", "config": {}}, "kernel_regularizer": null, "bias_regularizer": null, "activity_regularizer": null, "kernel_constraint": null, "bias_constraint": null}, "inbound_nodes": [[["max_pooling2d_4", 0, 0, {}]]]}, {"name": "conv2d_10", "class_name": "Conv2D", "config": {"name": "conv2d_10", "trainable": true, "filters": 1024, "kernel_size": [3, 3], "strides": [1, 1], "padding": "same", "data_format": "channels_last", "dilation_rate": [1, 1], "activation": "relu", "use_bias": true, "kernel_initializer": {"class_name": "VarianceScaling", "config": {"scale": 2.0, "mode": "fan_in", "distribution": "normal", "seed": null}}, "bias_initializer": {"class_name": "Zeros", "config": {}}, "kernel_regularizer": null, "bias_regularizer": null, "activity_regularizer": null, "kernel_constraint": null, "bias_constraint": null}, "inbound_nodes": [[["conv2d_9", 0, 0, {}]]]}, {"name": "dropout_2", "class_name": "Dropout", "config": {"name": "dropout_2", "trainable": true, "rate": 0.5, "noise_shape": null, "seed": null}, "inbound_nodes": [[["conv2d_10", 0, 0, {}]]]}, {"name": "up_sampling2d_1", "class_name": "UpSampling2D", "config": {"name": "up_sampling2d_1", "trainable": true, "size": [2, 2], "data_format": "channels_last"}, "inbound_nodes": [[["dropout_2", 0, 0, {}]]]}, {"name": "conv2d_11", "class_name": "Conv2D", "config": {"name": "conv2d_11", "trainable": true, "filters": 512, "kernel_size": [2, 2], "strides": [1, 1], "padding": "same", "data_format": "channels_last", "dilation_rate": [1, 1], "activation": "relu", "use_bias": true, "kernel_initializer": {"class_name": "VarianceScaling", "config": {"scale": 2.0, "mode": "fan_in", "distribution": "normal", "seed": null}}, "bias_initializer": {"class_name": "Zeros", "config": {}}, "kernel_regularizer": null, "bias_regularizer": null, "activity_regularizer": null, "kernel_constraint": null, "bias_constraint": null}, "inbound_nodes": [[["up_sampling2d_1", 0, 0, {}]]]}, {"name": "concatenate_1", "class_name": "Concatenate", "config": {"name": "concatenate_1", "trainable": true, "axis": -1}, "inbound_nodes": [[["dropout_1", 0, 0, {}], ["conv2d_11", 0, 0, {}]]]}, {"name": "conv2d_12", "class_name": "Conv2D", "config": {"name": "conv2d_12", "trainable": true, "filters": 512, "kernel_size": [3, 3], "strides": [1, 1], "padding": "same", "data_format": "channels_last", "dilation_rate": [1, 1], "activation": "relu", "use_bias": true, "kernel_initializer": {"class_name": "VarianceScaling", "config": {"scale": 2.0, "mode": "fan_in", "distribution": "normal", "seed": null}}, "bias_initializer": {"class_name": "Zeros", "config": {}}, "kernel_regularizer": null, "bias_regularizer": null, "activity_regularizer": null, "kernel_constraint": null, "bias_constraint": null}, "inbound_nodes": [[["concatenate_1", 0, 0, {}]]]}, {"name": "conv2d_13", "class_name": "Conv2D", "config": {"name": "conv2d_13", "trainable": true, "filters": 512, "kernel_size": [3, 3], "strides": [1, 1], "padding": "same", "data_format": "channels_last", "dilation_rate": [1, 1], "activation": "relu", "use_bias": true, "kernel_initializer": {"class_name": "VarianceScaling", "config": {"scale": 2.0, "mode": "fan_in", "distribution": "normal", "seed": null}}, "bias_initializer": {"class_name": "Zeros", "config": {}}, "kernel_regularizer": null, "bias_regularizer": null, "activity_regularizer": null, "kernel_constraint": null, "bias_constraint": null}, "inbound_nodes": [[["conv2d_12", 0, 0, {}]]]}, {"name": "up_sampling2d_2", "class_name": "UpSampling2D", "config": {"name": "up_sampling2d_2", "trainable": true, "size": [2, 2], "data_format": "channels_last"}, "inbound_nodes": [[["conv2d_13", 0, 0, {}]]]}, {"name": "conv2d_14", "class_name": "Conv2D", "config": {"name": "conv2d_14", "trainable": true, "filters": 256, "kernel_size": [2, 2], "strides": [1, 1], "padding": "same", "data_format": "channels_last", "dilation_rate": [1, 1], "activation": "relu", "use_bias": true, "kernel_initializer": {"class_name": "VarianceScaling", "config": {"scale": 2.0, "mode": "fan_in", "distribution": "normal", "seed": null}}, "bias_initializer": {"class_name": "Zeros", "config": {}}, "kernel_regularizer": null, "bias_regularizer": null, "activity_regularizer": null, "kernel_constraint": null, "bias_constraint": null}, "inbound_nodes": [[["up_sampling2d_2", 0, 0, {}]]]}, {"name": "concatenate_2", "class_name": "Concatenate", "config": {"name": "concatenate_2", "trainable": true, "axis": -1}, "inbound_nodes": [[["conv2d_6", 0, 0, {}], ["conv2d_14", 0, 0, {}]]]}, {"name": "conv2d_15", "class_name": "Conv2D", "config": {"name": "conv2d_15", "trainable": true, "filters": 256, "kernel_size": [3, 3], "strides": [1, 1], "padding": "same", "data_format": "channels_last", "dilation_rate": [1, 1], "activation": "relu", "use_bias": true, "kernel_initializer": {"class_name": "VarianceScaling", "config": {"scale": 2.0, "mode": "fan_in", "distribution": "normal", "seed": null}}, "bias_initializer": {"class_name": "Zeros", "config": {}}, "kernel_regularizer": null, "bias_regularizer": null, "activity_regularizer": null, "kernel_constraint": null, "bias_constraint": null}, "inbound_nodes": [[["concatenate_2", 0, 0, {}]]]}, {"name": "conv2d_16", "class_name": "Conv2D", "config": {"name": "conv2d_16", "trainable": true, "filters": 256, "kernel_size": [3, 3], "strides": [1, 1], "padding": "same", "data_format": "channels_last", "dilation_rate": [1, 1], "activation": "relu", "use_bias": true, "kernel_initializer": {"class_name": "VarianceScaling", "config": {"scale": 2.0, "mode": "fan_in", "distribution": "normal", "seed": null}}, "bias_initializer": {"class_name": "Zeros", "config": {}}, "kernel_regularizer": null, "bias_regularizer": null, "activity_regularizer": null, "kernel_constraint": null, "bias_constraint": null}, "inbound_nodes": [[["conv2d_15", 0, 0, {}]]]}, {"name": "up_sampling2d_3", "class_name": "UpSampling2D", "config": {"name": "up_sampling2d_3", "trainable": true, "size": [2, 2], "data_format": "channels_last"}, "inbound_nodes": [[["conv2d_16", 0, 0, {}]]]}, {"name": "conv2d_17", "class_name": "Conv2D", "config": {"name": "conv2d_17", "trainable": true, "filters": 128, "kernel_size": [2, 2], "strides": [1, 1], "padding": "same", "data_format": "channels_last", "dilation_rate": [1, 1], "activation": "relu", "use_bias": true, "kernel_initializer": {"class_name": "VarianceScaling", "config": {"scale": 2.0, "mode": "fan_in", "distribution": "normal", "seed": null}}, "bias_initializer": {"class_name": "Zeros", "config": {}}, "kernel_regularizer": null, "bias_regularizer": null, "activity_regularizer": null, "kernel_constraint": null, "bias_constraint": null}, "inbound_nodes": [[["up_sampling2d_3", 0, 0, {}]]]}, {"name": "concatenate_3", "class_name": "Concatenate", "config": {"name": "concatenate_3", "trainable": true, "axis": -1}, "inbound_nodes": [[["conv2d_4", 0, 0, {}], ["conv2d_17", 0, 0, {}]]]}, {"name": "conv2d_18", "class_name": "Conv2D", "config": {"name": "conv2d_18", "trainable": true, "filters": 128, "kernel_size": [3, 3], "strides": [1, 1], "padding": "same", "data_format": "channels_last", "dilation_rate": [1, 1], "activation": "relu", "use_bias": true, "kernel_initializer": {"class_name": "VarianceScaling", "config": {"scale": 2.0, "mode": "fan_in", "distribution": "normal", "seed": null}}, "bias_initializer": {"class_name": "Zeros", "config": {}}, "kernel_regularizer": null, "bias_regularizer": null, "activity_regularizer": null, "kernel_constraint": null, "bias_constraint": null}, "inbound_nodes": [[["concatenate_3", 0, 0, {}]]]}, {"name": "conv2d_19", "class_name": "Conv2D", "config": {"name": "conv2d_19", "trainable": true, "filters": 128, "kernel_size": [3, 3], "strides": [1, 1], "padding": "same", "data_format": "channels_last", "dilation_rate": [1, 1], "activation": "relu", "use_bias": true, "kernel_initializer": {"class_name": "VarianceScaling", "config": {"scale": 2.0, "mode": "fan_in", "distribution": "normal", "seed": null}}, "bias_initializer": {"class_name": "Zeros", "config": {}}, "kernel_regularizer": null, "bias_regularizer": null, "activity_regularizer": null, "kernel_constraint": null, "bias_constraint": null}, "inbound_nodes": [[["conv2d_18", 0, 0, {}]]]}, {"name": "up_sampling2d_4", "class_name": "UpSampling2D", "config": {"name": "up_sampling2d_4", "trainable": true, "size": [2, 2], "data_format": "channels_last"}, "inbound_nodes": [[["conv2d_19", 0, 0, {}]]]}, {"name": "conv2d_20", "class_name": "Conv2D", "config": {"name": "conv2d_20", "trainable": true, "filters": 64, "kernel_size": [2, 2], "strides": [1, 1], "padding": "same", "data_format": "channels_last", "dilation_rate": [1, 1], "activation": "relu", "use_bias": true, "kernel_initializer": {"class_name": "VarianceScaling", "config": {"scale": 2.0, "mode": "fan_in", "distribution": "normal", "seed": null}}, "bias_initializer": {"class_name": "Zeros", "config": {}}, "kernel_regularizer": null, "bias_regularizer": null, "activity_regularizer": null, "kernel_constraint": null, "bias_constraint": null}, "inbound_nodes": [[["up_sampling2d_4", 0, 0, {}]]]}, {"name": "concatenate_4", "class_name": "Concatenate", "config": {"name": "concatenate_4", "trainable": true, "axis": -1}, "inbound_nodes": [[["conv2d_2", 0, 0, {}], ["conv2d_20", 0, 0, {}]]]}, {"name": "conv2d_21", "class_name": "Conv2D", "config": {"name": "conv2d_21", "trainable": true, "filters": 64, "kernel_size": [3, 3], "strides": [1, 1], "padding": "same", "data_format": "channels_last", "dilation_rate": [1, 1], "activation": "relu", "use_bias": true, "kernel_initializer": {"class_name": "VarianceScaling", "config": {"scale": 2.0, "mode": "fan_in", "distribution": "normal", "seed": null}}, "bias_initializer": {"class_name": "Zeros", "config": {}}, "kernel_regularizer": null, "bias_regularizer": null, "activity_regularizer": null, "kernel_constraint": null, "bias_constraint": null}, "inbound_nodes": [[["concatenate_4", 0, 0, {}]]]}, {"name": "conv2d_22", "class_name": "Conv2D", "config": {"name": "conv2d_22", "trainable": true, "filters": 64, "kernel_size": [3, 3], "strides": [1, 1], "padding": "same", "data_format": "channels_last", "dilation_rate": [1, 1], "activation": "relu", "use_bias": true, "kernel_initializer": {"class_name": "VarianceScaling", "config": {"scale": 2.0, "mode": "fan_in", "distribution": "normal", "seed": null}}, "bias_initializer": {"class_name": "Zeros", "config": {}}, "kernel_regularizer": null, "bias_regularizer": null, "activity_regularizer": null, "kernel_constraint": null, "bias_constraint": null}, "inbound_nodes": [[["conv2d_21", 0, 0, {}]]]}, {"name": "conv2d_23", "class_name": "Conv2D", "config": {"name": "conv2d_23", "trainable": true, "filters": 2, "kernel_size": [3, 3], "strides": [1, 1], "padding": "same", "data_format": "channels_last", "dilation_rate": [1, 1], "activation": "relu", "use_bias": true, "kernel_initializer": {"class_name": "VarianceScaling", "config": {"scale": 2.0, "mode": "fan_in", "distribution": "normal", "seed": null}}, "bias_initializer": {"class_name": "Zeros", "config": {}}, "kernel_regularizer": null, "bias_regularizer": null, "activity_regularizer": null, "kernel_constraint": null, "bias_constraint": null}, "inbound_nodes": [[["conv2d_22", 0, 0, {}]]]}, {"name": "conv2d_24", "class_name": "Conv2D", "config": {"name": "conv2d_24", "trainable": true, "filters": 1, "kernel_size": [1, 1], "strides": [1, 1], "padding": "valid", "data_format": "channels_last", "dilation_rate": [1, 1], "activation": "sigmoid", "use_bias": true, "kernel_initializer": {"class_name": "VarianceScaling", "config": {"scale": 1.0, "mode": "fan_avg", "distribution": "uniform", "seed": null}}, "bias_initializer": {"class_name": "Zeros", "config": {}}, "kernel_regularizer": null, "bias_regularizer": null, "activity_regularizer": null, "kernel_constraint": null, "bias_constraint": null}, "inbound_nodes": [[["conv2d_23", 0, 0, {}]]]}], "input_layers": [["input_1", 0, 0]], "output_layers": [["conv2d_24", 0, 0]]}, "inbound_nodes": [[["lambda_1", 0, 0, {}]], [["lambda_2", 0, 0, {}]], [["lambda_3", 0, 0, {}]], [["lambda_4", 0, 0, {}]], [["lambda_5", 0, 0, {}]], [["lambda_6", 0, 0, {}]], [["lambda_7", 0, 0, {}]], [["lambda_8", 0, 0, {}]]]}, {"name": "conv2d_24", "class_name": "Concatenate", "config": {"name": "conv2d_24", "trainable": true, "axis": 0}, "inbound_nodes": [[["model_1", 1, 0, {}], ["model_1", 2, 0, {}], ["model_1", 3, 0, {}], ["model_1", 4, 0, {}], ["model_1", 5, 0, {}], ["model_1", 6, 0, {}], ["model_1", 7, 0, {}], ["model_1", 8, 0, {}]]]}], "input_layers": [["input_1", 0, 0]], "output_layers": [["conv2d_24", 0, 0]]}, "keras_version": "2.2.2", "backend": "tensorflow"}